basics/lunar-lander/checkpoints/dqn/best.pt (torch, 299165 bytes, 24 tensors)

network.0.weight f4 [128, 8]
-0.41437134 -0.18721244 0.6800417 0.19589815 -0.25685534 0.24467622 0.45941854 0.5654309
-0.3161301 -0.1395026 -0.4835736 -0.25271934 0.96165377 -0.14979938 0.34012842 0.25445798
-0.5805647 0.54439783 0.62773025 0.43775 -0.78363836 0.22213955 0.064150974 0.7361943
-0.76414835 -0.15941992 -0.2513223 -1.3386521 0.41567528 -0.009494691 -0.3421819 -0.17869712
0.6177577 0.050499223 -0.27151895 -0.28475988 0.53512424 -0.22490211 0.44519365 0.7409243
1.2839502 0.8126 1.6799167 -0.8132769 -0.011933298 -0.2459469 -0.22164555 -0.6129646
0.086231925 -0.08474417 -0.06064669 0.06827967 0.22029261 -0.38726276 -0.008734239 0.22834972
-1.4933233 -0.16259243 0.9676497 0.3439213 -0.8945583 0.49658462 -0.31736588 -0.41847017
-0.49186754 0.07595219 0.046738517 -0.12834214 -0.55335945 -0.15903631 0.8057994 -0.23958664
-0.61953944 0.6444068 0.35645172 -1.32245 0.38702983 -0.096573904 0.21670376 0.28929907
-0.49017134 0.13730845 -0.17284715 -0.8863599 0.6911093 -0.11030144 -0.08076306 0.6777194
-0.25763866 -0.03364782 2.0884683 -0.24351045 -0.45171782 0.034173205 0.24331243 0.094694495
0.17725448 0.23366623 -0.008040943 -0.9425707 0.37991855 -0.6052421 -0.20430239 0.28177473
0.13347319 0.44057634 0.50646573 0.043322418 0.107906066 0.3716928 -0.71101683 -0.32995164
0.82637495 -0.010453373 -0.3696979 -0.85097325 -0.505728 -0.41370124 -1.1821344 -0.14191751
1.4973948 0.37990043 -0.4315531 -0.39841464 -0.16941114 0.06587974 0.04250868 0.08858012
-0.22322978 -0.12771423 0.6190718 -0.21888788 0.35329342 -0.23216961 0.46043152 -0.060891837
-0.3748699 -0.09846482 0.015905863 0.011806904 -0.2956331 0.320996 0.66988254 0.6303005
-0.23792654 0.22492337 -0.14439258 -0.13710037 -1.2902479 0.27171296 0.02972737 -0.16994338
-1.3023814 0.33436567 -0.07821262 0.9670762 -0.009051314 -0.07850848 -0.060583495 0.23318073
0.30434972 -0.2639792 0.41990533 -0.90187407 -0.6458238 0.24573964 -0.053969834 0.36939272
0.114634596 0.1655325 -0.8625027 -0.20106138 0.73472947 -0.3609863 0.707913 0.25872838
-0.47697523 -0.21616039 0.25806224 0.14680381 -0.32700488 0.020730287 0.10549402 0.63107073
0.1374643 0.23094562 0.24355187 -0.7146431 0.18626143 0.006116607 -0.20866752 0.51354086
-0.12395387 -0.34361744 2.1054292 1.9989067 -0.04809293 0.027199619 0.74645615 -0.04513469
-0.10251727 0.48737508 1.1881044 -0.68625605 -0.29086456 0.19980794 0.12315276 0.36480904
-0.45134917 -0.085692115 1.6294769 -1.0651326 -0.45912373 -0.08994763 0.48898646 -0.05056744
0.3878712 0.2293721 -0.5944789 -0.17669414 0.35300508 -0.6271414 -0.9714113 -1.281583
-0.6961063 0.34582567 0.44553518 0.95468646 -0.29153934 0.9204567 -0.8136754 -0.9123955
-0.18293525 -0.6397057 0.02271809 -0.3770007 0.013450256 1.0051451 0.39414862 -0.14741443
-1.002665 -0.13590145 0.41737863 -0.046976805 -0.3121786 0.16085418 0.5170681 -1.156224
-0.075783424 0.09073103 -0.2894058 -0.6226137 -0.23135096 -0.42273203 0.37157494 -0.6057898
00000000: 7b28 d4be 9eb4 3fbe 3617 2e3f 8699 483e
00000010: 8b82 83be 678c 7a3e e838 eb3e 14c0 103f
00000020: cedb a1be c5d9 0ebe f596 f7be 6e64 81be
00000030: f12e 763f 0265 19be 5025 ae3e 5148 823e
00000040: e39f 14bf a85d 0b3f eeb2 203f c520 e03e
00000050: 869c 48bf 8d78 633e 9661 833d 3b77 3c3f
00000060: 3a9f 43bf fa3e 23be 51ad 80be f458 abbf
00000070: 64d3 d43e 9f8f 1bbc 7732 afbe 61fc 36be
00000080: 5e25 1e3f 46d8 4e3d 8804 8bbe 0ccc 91be
00000090: e7fd 083f bd4c 66be 6cf0 e33e 37ad 3d3f
000000a0: 7b58 a43f 8e06 503f 8307 d73f ea32 50bf
000000b0: e183 43bc 81d9 7bbe 0df7 62be 3feb 1cbf
000000c0: 5d9a b03d 5a8e adbd aa68 78bd 36d6 8b3d
000000d0: 6394 613e 4e47 c6be 0e1a 0fbc 82d4 693e
000000e0: 3825 bfbf a17e 26be e4b7 773f 7416 b03e
000000f0: c601 65bf 5740 fe3e c87d a2be b941 d6be
00000100: 10d6 fbbe d28c 9b3d e370 3f3d 1f6c 03be
00000110: f7a8 0dbf 6ada 22be df48 4e3f 3356 75be
00000120: 239a 1ebf d8f7 243f d780 b63e 0b46 a9bf
00000130: c628 c63e 8ac8 c5bd 97e7 5d3e 021f 943e
00000140: bdf7 fabe 969a 0c3e d8fe 30be 7be8 62bf
00000150: 8aec 303f b9e5 e1bd 1a67 a5bd 057f 2d3f
00000160: 37e9 83be 4cd2 09bd 77a9 0540 ce5a 79be
00000170: 8f47 e7be 34f9 0b3d e526 793e 30ef c13d
00000180: 3382 353e 3346 6f3e 29be 03bc 504c 71bf
00000190: af84 c23e 25f1 1abf a534 51be c744 903e
000001a0: 32ad 083e 3993 e13e bda7 013f d972 313d
000001b0: dbfd dc3d 854e be3e 3305 36bf 6cef a8be
000001c0: 4f8d 533f a044 2bbc 0b49 bdbe 62d9 59bf
000001d0: 6477 01bf a6d0 d3be 2e50 97bf d352 11be
000001e0: a2aa bf3f 4f82 c23e 87f4 dcbe 01fd cbbe
000001f0: 1d7a 2dbe f5eb 863d 951d 2e3d 7e69 b53d
00000200: 5996 64be 85c7 02be 7d7b 1e3f 2524 60be
00000210: e0e2 b43e dfbd 6dbe aebd eb3e b869 79bd
00000220: f3ee bfbe eca7 c9bd 034d 823c bf71 413c
00000230: 395d 97be 9659 a43e 6c7d 2b3f 605b 213f
00000240: 04a3 73be 5052 663e a6db 13be 0a64 0cbe
00000250: d826 a5bf f61d 8b3e d086 f33c a305 2ebe
00000260: 6fb4 a6bf fa31 ab3e f02d a0bd 4e92 773f
00000270: f64b 14bc 0ec9 a0bd 6626 78bd eec6 6e3e
00000280: bad3 9b3e 4828 87be d5fd d63e 38e1 66bf
00000290: b554 25bf 2ca3 7b3e 790f 5dbd 0b21 bd3e
000002a0: 8bc5 ea3d 5a81 293e facc 5cbf 09e3 4dbe
000002b0: 3b17 3c3f 32d3 b8be c939 353f 0c78 843e
000002c0: 1936 f4be 2659 5dbe bc20 843e bd53 163e
000002d0: 2f6d a7be 90d2 a93c 400d d83d da8d 213f
000002e0: 71c3 0c3e 027d 6c3e a965 793e daf2 36bf
000002f0: 51bb 3e3e d26d c83b f0ac 55be 6a77 033f
00000300: 87db fdbd a0ee afbe 5abf 0640 2ddc ff3f
00000310: 18fd 44bd bcd1 de3c c017 3f3f 27df 38bd
00000320: 93f4 d1bd 3a89 f93e ce13 983f 7aae 2fbf
00000330: 33ec 94be 749a 4c3e 8437 fc3d 40c8 ba3e
00000340: 3d17 e7be 597f afbd b392 d03f 4456 88bf
00000350: 4412 ebbe 7736 b8bd 6f5c fa3e ce1f 4fbd
00000360: 0e97 c63e 85e0 6a3e c52f 18bf 4fef 34be
00000370: 15bd b43e 578c 20bf 69ae 78bf e90a a4bf
00000380: 0634 32bf 1010 b13e 301d e43e 5566 743f
00000390: a544 95be 0da3 6b3f 084d 50bf c092 69bf
000003a0: 6153 3bbe c1c3 23bf 4a1b ba3c 3c06 c1be
000003b0: 765e 5c3c 98a8 803f d9cd c93e cff3 16be
000003c0: 5457 80bf c029 0bbe a7b2 d53e c06a 40bd
000003d0: e0d5 9fbe f5b6 243e 935e 043f 26ff 93bf
000003e0: 5734 9bbd 31d1 b93d ff2c 94be 9d63 1fbf
000003f0: 44e7 6cbe 5570 d8be 123f be3e 0a15 1bbf

network.0.bias f4 [128]
-0.13537343 0.3872209 -0.28418022 -0.3230352 -0.18771416 -0.099980384 0.4316388 -0.3047001
-0.0342531 -0.33310232 0.003533988 0.04998482 -0.0075508337 -0.9683029 0.30417782 -0.09647641
0.48832402 0.14267299 0.47883436 -0.4943697 0.7404524 0.14284258 0.32445413 0.06627416
0.0393088 0.41564667 0.15527698 0.18951494 -0.772521 -0.020382976 -0.0049888 0.32316554
0.21949726 -0.67805773 0.34970146 0.33853275 -0.7248789 0.003749919 0.43623587 0.47704786
0.36478764 -0.24857575 0.044318616 0.4183555 0.5609777 -0.09903368 0.511095 0.30064046
-0.5390167 0.04544041 0.64059204 -0.27003834 0.48455903 -0.73051864 -0.19510472 0.19871958
0.07807777 0.015865069 -0.90332735 0.79243666 0.59058213 0.8174501 -0.525056 0.08322755
-0.23287514 0.07991686 0.023039818 -0.089125685 -0.09298873 0.62037045 0.11776113 -0.10099338
0.567831 0.89954436 0.38362935 -0.54149103 -0.4837488 0.28762266 -0.16992444 -0.6949737
0.43877217 -0.1568362 -0.5630512 -0.99390996 0.47829023 0.6981046 -0.55967283 0.36445975
0.465444 0.26405805 0.62130016 0.5335924 -0.19352747 0.17937225 0.13794476 0.30670136
0.12866466 -0.3271767 0.24129018 0.31224126 0.095882416 -0.2411959 0.8080545 0.39662683
0.45040458 0.06894898 0.12293941 -0.2451371 0.489624 -0.42418572 -0.06410884 -0.80539906
-0.19070964 -0.12920877 -0.053811908 -0.00878038 0.1416616 0.046489168 0.13390893 0.16544122
-0.5324467 -0.045876972 -0.55634135 0.4048402 0.3339217 -0.4406494 0.6502362 -0.22877009
00000000: 559f 0abe d141 c63e 1280 91be df64 a5be
00000010: 2438 40be 84c2 ccbd c3ff dc3e a701 9cbe
00000020: fb4c 0cbd 638c aabe 7b9a 673b e2bc 4c3d
00000030: fc6c f7bb b3e2 77bf 32bd 9b3e 6d95 c5bd
00000040: 9b05 fa3e de18 123e c729 f53e 061e fdbe
00000050: 4a8e 3d3f 5345 123e da1e a63e bfba 873d
00000060: 4402 213d a4cf d43e ee00 1f3e 3410 423e
00000070: f0c3 45bf 33fa a6bc 1679 a3bb f475 a53e
00000080: e4c3 603e 3195 2dbf 120c b33e 2a54 ad3e
00000090: aa91 39bf 33c1 753b 4f5a df3e 9e3f f43e
000000a0: 72c5 ba3e a48a 7ebe 7087 353d b132 d63e
000000b0: 3c9c 0f3f 2cd2 cabd 1fd7 023f 8ced 993e
000000c0: 00fd 09bf b91f 3a3d d7fd 233f 7742 8abe
000000d0: 1f18 f83e 4503 3bbf 88c9 47be 257d 4b3e
000000e0: 3de7 9f3d 76f7 813c 7640 67bf 21dd 4a3f
000000f0: 6430 173f 6944 513f 126a 06bf 3573 aa3d
00000100: d276 6ebe 73ab a33d 00be bc3c 8787 b6bd
00000110: e070 bebd 99d0 1e3f bf2c f13d 9ed5 cebd
00000120: 5f5d 113f 8a48 663f 116b c43e 289f 0abf
00000130: ecad f7be 4743 933e ac00 2ebe cce9 31bf
00000140: bfa6 e03e ab99 20be 2024 10bf e270 7ebf
00000150: 75e2 f43e fcb6 323f b846 0fbf 789a ba3e
00000160: ad4e ee3e 9e32 873e 870d 1f3f 8399 083f
00000170: 112c 46be 5cad 373e 6441 0d3e f607 9d3e
00000180: abc0 033e b483 a7be c614 773e 16de 9f3e
00000190: 005e c43d 0ffc 76be a9dc 4e3f ac12 cb3e
000001a0: 6e9b e63e 1f35 8d3d a8c7 fb3d 3805 7bbe
000001b0: ffaf fa3e df2e d9be 7f4b 83bd a22e 4ebf
000001c0: 6349 43be 4e4f 04be e069 5cbd 95db 0fbc
000001d0: bd0f 113e 6d6b 3e3d 6c1f 093e 6c69 293e
000001e0: 6d4e 08bf 7ee9 3bbd 636c 0ebf 3747 cf3e
000001f0: c9f7 aa3e cc9c e1be e175 263f b542 6abe

network.2.weight f4 [128, 128]
0.6097998 0.0034680583 -0.20820282 1.7946446 0.30748713 -0.095149994 0.2995413 0.6432939
0.5383919 0.1272251 0.38458967 0.3659091 0.018647553 0.40243953 0.4389153 -0.45693997
-0.012161279 0.35291648 -0.16907926 -0.4431255 -0.029678175 0.4121601 0.31536788 0.3147737
0.26492524 -0.11751433 0.26678175 -0.0801563 1.02134 0.67475617 0.972469 0.04700012
-0.12996845 1.2206197 -0.121488005 0.28014117 0.94925916 -0.632103 -0.3801306 -0.19796655
-0.06314979 -0.19853823 -0.1224532 -0.3240709 -0.58416355 0.16296995 -0.3370223 -0.35650057
0.5144028 1.5266315 0.64686215 0.45171827 0.031789903 -0.025064949 0.15920715 -0.20240314
0.273904 -0.64041746 0.5775213 -0.71921355 0.21103661 -0.113100626 1.1036704 -0.06088181
-0.41347808 0.21173024 0.15234129 0.91510195 0.33385155 -0.29984653 0.21124062 -0.15576677
-0.2043214 0.28420696 -0.28340062 -0.06582113 1.1262589 0.17019185 0.017103767 0.7366106
-0.33930534 -1.0595783 0.6508799 2.8859026 0.27308595 -0.08182773 0.051458437 -0.77387
-0.061744712 0.07275736 0.07774984 0.13107605 -1.1918236 0.21257605 -0.09186681 -0.38325757
0.25794587 0.44031975 -0.05650787 -0.09553149 -0.27560636 0.12115718 -0.15166222 -0.6542675
-0.28622738 0.13538954 0.13769549 0.32419962 0.19064383 0.31778455 0.3853685 1.0651007
1.0980006 0.22690845 0.37566638 1.4630353 0.22443728 0.13289335 0.36263677 -0.10864269
0.42829895 -0.3586431 0.16042016 0.2939523 0.06477033 0.3598979 -0.14034367 0.76122755
-0.44623563 -0.0045726816 0.26706165 -0.9549646 -0.046737194 -0.064895056 0.23575489 0.07826834
-0.18690081 -0.6025972 -0.053420443 -1.1960353 0.4089588 -2.6137967 0.10062222 -0.2374347
0.15128236 -0.26673758 0.051890485 -1.5762154 0.164409 -0.39174202 0.18771201 0.19161353
-1.7604387 0.17895779 -0.08580911 -0.5928499 -0.46033168 -0.52146965 -0.32143182 0.26589596
-0.13869677 -0.42930812 0.1870679 -0.44223493 0.11156934 -0.6753624 -0.08646313 0.16957317
-0.09940927 -1.2665881 0.0427572 -0.13147034 0.33227468 -0.20872508 -0.11879439 -0.6302318
0.048205297 0.255501 0.6963514 -0.65774393 0.56608284 -0.43785095 -0.20674537 -0.2571329
0.28761068 -0.6100279 -0.26806962 0.38598502 0.26225138 0.46211827 -1.9826506 -0.15804295
0.041250773 -0.2514557 0.3136726 -0.3665446 0.39115247 0.22986917 -0.037147596 0.04127541
0.30926898 0.5290469 0.1624933 -0.10997255 -0.69865155 0.09760736 -0.5674441 -0.044791494
0.21178734 -0.4542703 -0.9477347 0.4331936 -0.14285417 0.5509478 -1.5671959 0.19146481
0.26666957 -0.098014876 0.10382743 -0.07460218 0.5269653 -0.33774254 0.10265247 0.045839645
0.06700773 -0.17507063 -0.43546647 -0.19779798 0.3477706 0.61971074 0.49398282 0.08442033
0.06872288 -0.6748837 0.083841644 0.050067283 -0.0176754 0.095552474 -1.2525592 0.040470906
-0.49830654 -0.027281143 -0.034157358 -2.9609253 -0.48454362 0.114541076 -0.3368676 0.14665435
-0.6885891 -0.10494889 0.09297865 0.04557141 -0.13742845 -2.0948777 0.07759893 -0.7915774
00000000: d71b 1c3f 5d48 633b 1f33 55be eab6 e53f
00000010: f46e 9d3e 00de c2bd 7a5d 993e e9ae 243f
00000020: 0dd4 093f 4c47 023e f0e8 c43e 7058 bb3e
00000030: c1c2 983c 8e0c ce3e 82b9 e03e 09f4 e9be
00000040: 1a40 47bc 78b1 b43e 1d23 2dbe 58e1 e2be
00000050: a51f f3bc a606 d33e e677 a13e 052a a13e
00000060: 48a4 873e 5aab f0bd 9e97 883e fc28 a4bd
00000070: 45bb 823f d2bc 2c3f baf3 783f 3383 403d
00000080: 7316 05be 443d 9c3f b4ce f8bd aa6e 8f3e
00000090: a602 733f 81d1 21bf 7aa0 c2be beb7 4abe
000000a0: ad54 81bd 9b4d 4bbe bec8 fabd 9fec a5be
000000b0: be8b 15bf 98e1 263e 308e acbe 3e87 b6be
000000c0: e7af 033f a968 c33f c298 253f 9e47 e73e
000000d0: 2136 023d 0255 cdbc 3307 233e c542 4fbe
000000e0: 253d 8c3e 66f2 23bf 70d8 133f 611e 38bf
000000f0: fb19 583e 4da1 e7bd 1245 8d3f 345f 79bd
00000100: 66b3 d3be d0cf 583e 5bff 1b3e 1f44 6a3f
00000110: 97ee aa3e 7c85 99be 764f 583e 5381 1fbe
00000120: a139 51be 9383 913e e319 91be 3bcd 86bd
00000130: 4029 903f c646 2e3e 331d 8c3c 8392 3c3f
00000140: 6eb9 adbe 43a0 87bf 11a0 263f a1b2 3840
00000150: ecd1 8b3e 4c95 a7bd 15c6 523d 581c 46bf
00000160: 06e8 7cbd d001 953d 4f3b 9f3d cd38 063e
00000170: ad8d 98bf 89ad 593e ab24 bcbd 563a c4be
00000180: 7b11 843e 9771 e13e cc74 67bd 04a6 c3bd
00000190: 471c 8dbe 4121 f83d 574d 1bbe 137e 27bf
000001a0: 658c 92be 8ea3 0a3e 0c00 0d3e 7efd a53e
000001b0: 2338 433e a8b4 a23e 054f c53e 3855 883f
000001c0: 498b 8c3f b05a 683e 5857 c03e be44 bb3f
000001d0: e3d2 653e 3215 083e 87ab b93e 0f80 debd
000001e0: 004a db3e 12a0 b7be 2f45 243e ea80 963e
000001f0: 4fa6 843d 8a44 b83e 40b6 0fbe cfdf 423f
00000200: ff78 e4be 6fd6 95bb 4ebc 883e 8f78 74bf
00000210: 806f 3fbd b3e7 84bd bb69 713e 274b a03d
00000220: ed62 3fbe cf43 1abf 65cf 5abd af17 99bf
00000230: 0c63 d13e 7248 27c0 0613 ce3d 1522 73be
00000240: c3e9 1a3e d491 88be 1e8b 543d 6dc1 c9bf
00000250: d55a 283e 6992 c8be 9437 403e 5636 443e
00000260: 0e56 e1bf b640 373e b0bc afbd 03c5 17bf
00000270: 98b0 ebbe 097f 05bf b692 a4be 8423 883e
00000280: 8706 0ebe 46ce dbbe ba8e 3f3e 9e6c e2be
00000290: 777e e43d 8de4 2cbf 9513 b1bd 97a4 2d3e
000002a0: 1697 cbbd 8f1f a2bf 2c22 2f3d 29a0 06be
000002b0: e81f aa3e 07bc 55be 794a f3bd df56 21bf
000002c0: eb72 453d 07d1 823e 1644 323f e861 28bf
000002d0: ceea 103f 002e e0be 0fb5 53be eca6 83be
000002e0: b541 933e ca2a 1cbf 6c40 89be d49f c53e
000002f0: d045 863e c49a ec3e 7fc7 fdbf 03d6 21be
00000300: 92f6 283d cdbe 80be b299 a03e bcab bbbe
00000310: 2345 c83e d362 6b3e 1428 18bd 6810 293d
00000320: 8158 9e3e 9e6f 073f a564 263e 4a39 e1bd
00000330: d4da 32bf 5ee6 c73d 0444 11bf 4977 37bd
00000340: c8de 583e 1e96 e8be be9e 72bf 8dcb dd3e
00000350: 5d48 12be ea0a 0d3f e099 c8bf 5a0f 443e
00000360: ea88 883e 06bc c8bd 7aa3 d43d 07c9 98bd
00000370: 33e7 063f 97ec acbe 753b d23d 5ac2 3b3d
00000380: 593b 893d b745 33be 76f5 debe 8e8b 4abe
00000390: fd0e b23e 5da5 1e3f 51eb fc3e 91e4 ac3d
000003a0: 95be 8c3d 2ec5 2cbf 2bb5 ab3d 5a13 4d3d
000003b0: 00cc 90bc 04b1 c33d dc53 a0bf d2c4 253d
000003c0: 0922 ffbe b47c dfbc 96e8 0bbd cd7f 3dc0
000003d0: 1a16 f8be 8394 ea3d e979 acbe 8f2c 163e
000003e0: 6047 30bf 72ef d6bd 976b be3d 16a9 3a3d
000003f0: 0bba 0cbe 7a12 06c0 30ec 9e3d d1a4 4abf

network.2.bias f4 [128]
-0.35675007 0.39786988 -0.350691 0.30578777 0.4749133 0.23502578 0.05912949 -0.06756389
-0.008522517 -0.026625462 -0.2059888 -0.069265455 -0.17930953 0.007836694 -0.045945473 0.17578043
-0.19729517 -0.06389078 -0.033169873 -0.012399981 0.30236185 -0.14395654 -0.061867256 -0.16847584
-0.1600103 -0.11140996 -0.107035466 0.021988468 -0.25141746 -0.34375438 0.11902589 -0.116448544
-0.039439883 0.094183624 0.003797931 -0.37908685 -0.11290468 0.09746631 0.10535866 -0.11479684
0.36215192 -0.11371986 0.33638772 -0.048608862 0.08048478 -0.12693575 -0.010846469 0.037778277
-0.04687654 0.002066298 -0.14678587 0.27616835 -0.0820494 -0.11614318 -0.10531703 0.38433293
-0.014853438 0.26346576 -0.07933588 -0.29384202 -0.09800739 0.024575628 0.06263596 -0.14301468
0.050430983 -0.41264114 0.018497452 -0.021199463 0.32626304 -0.074875034 0.044600215 -0.39526433
-0.071393475 0.17325018 0.32452908 0.19793703 0.07364412 -0.05693864 0.5186851 0.3024307
0.39091176 -0.12354976 0.000539057 -0.16920581 0.007663287 0.14123735 0.3401126 0.10220626
-0.137877 -0.15244572 0.21414652 -0.38903725 -0.05165999 -0.1358303 -0.07341938 -0.019811247
0.26427174 -0.27481702 0.017383441 4.7444446e-05 -0.12014597 0.07426272 -0.3767258 0.20007303
-0.017208822 0.0870989 -0.0052631954 -0.345199 -0.046374273 0.11722774 0.10502181 -0.10428383
-0.14239234 -0.2090363 -0.22149214 0.36898953 -0.086199194 0.18122117 -0.06529377 0.0052569644
0.011673343 -0.026769334 -0.021469638 0.06051596 -0.031876534 -0.21781333 -0.61808306 -0.1630061
00000000: f2a7 b6be 9ab5 cb3e c58d b3be 3790 9c3e
00000010: d627 f33e 99aa 703e c431 723d f05e 8abd
00000020: 07a2 0bbc a41d dabc baee 52be 0cdb 8dbd
00000030: eb9c 37be 7a65 003c 5231 3cbd c9ff 333e
00000040: bf07 4abe 2bd9 82bd 22dd 07bd 4a29 4bbc
00000050: 2ccf 9a3e 5869 13be 8568 7dbd ee84 2cbe
00000060: bdd9 23be e82a e4bd 6935 dbbd 2921 b43c
00000070: cab9 80be 9300 b0be d9c3 f33d 937c eebd
00000080: b78b 21bd 58e3 c03d b5e6 783b ac17 c2be
00000090: 923a e7bd 6b9c c73d 48c6 d73d 9b1a ebbd
000000a0: fa6b b93e f5e5 e8bd 033b ac3e 161a 47bd
000000b0: 34d5 a43d 72fb 01be 63b5 31bc 65bd 1a3d
000000c0: 9d01 40bd ba6a 073b 094f 16be f065 8d3e
000000d0: 8409 a8bd 7adc edbd 74b0 d7bd 49c7 c43e
000000e0: d65b 73bc fce4 863e da7a a2bd 7672 96be
000000f0: 19b8 c8bd d452 c93c 4847 803d 7172 12be
00000100: b890 4e3d b345 d3be f887 973c 7faa adbc
00000110: f30b a73e 1558 99bd b7ae 363d 1660 cabe
00000120: be36 92bd 7f68 313e ad28 a63e 01b0 4a3e
00000130: bad2 963d 7e38 69bd 8cc8 043f 32d8 9a3e
00000140: 9625 c83e a807 fdbd 814f 0d3a 4a44 2dbe
00000150: 501c fb3b 86a0 103e 3d23 ae3e 8451 d13d
00000160: a12f 0dbe bb1a 1cbe 3a49 5b3e e42f c7be
00000170: 6d99 53bd 1917 0bbe e65c 96bd 324b a2bc
00000180: a04e 873e d1b4 8cbe b867 8e3c 16ff 4638
00000190: 170f f6bd 0e17 983d 34e2 c0be f2df 4c3e
000001a0: 84f9 8cbc e860 b23d e276 acbb ecbd b0be
000001b0: f3f2 3dbd 1915 f03d ad15 d73d c392 d5bd
000001c0: 4ccf 11be 9d0d 56be d6ce 62be 32ec bc3e
000001d0: 3489 b0bd 0b92 393e bdb8 85bd 9d42 ac3b
000001e0: 8d41 3f3c 5d4b dbbc 18e1 afbc 95df 773d
000001f0: f890 02bd 750a 5fbe b13a 1ebf 12eb 26be

network.4.weight f4 [4, 128]
-0.6695025 -1.0958422 -0.65340656 -0.7626633 1.3098783 1.4562835 -1.291881 -0.039360486
-0.50823253 2.0421202 1.2844543 -0.25354174 -0.56202114 -0.12707037 0.06262318 0.8717622
-0.71029913 -0.014529699 1.120247 -0.5222016 0.9932939 -0.4183159 0.08475414 -0.5122075
-0.6999042 -0.3352039 -0.6150668 -0.56526434 -0.8794648 -2.860331 -0.41553572 -0.3472038
-0.4083199 -1.3099476 -0.091931626 0.8341702 -0.39151892 3.6002204 1.5343285 -0.27370527
0.94701934 1.5456829 1.4499544 -0.08151713 -0.38072425 -1.0875404 -0.21160974 -0.17120437
-0.3299734 -0.3345337 -0.21955086 0.6792226 1.7329624 2.5684826 0.81740654 -0.29443693
-0.47800702 0.91726243 0.900423 -0.4193592 0.040994428 0.086811386 -0.24472678 -0.2693948
-0.34048924 -0.55974644 0.67124826 -0.26508754 -0.60839844 -1.3788581 1.4227035 -0.6810261
-0.37065035 -0.25179452 0.92808825 -0.176505 1.1960249 -0.25012276 -1.3927653 -0.30447167
-0.8730737 -0.3270821 -0.36514688 -1.4793099 1.7981219 0.6724658 1.4279003 1.121291
-0.3108772 -0.463257 0.85619557 -1.8782071 0.24803142 -0.3293111 -0.46745315 2.33254
1.220142 -1.9983342 -0.34729826 0.5655715 1.2724729 1.9659652 -1.2075614 0.9420228
-0.028786443 1.9897664 0.6889767 -0.39963445 -0.35675216 1.0719615 0.7627167 -1.0133296
-0.3253401 -0.45784575 1.5862267 0.89842707 0.2954652 0.8495096 -0.008377211 1.7151712
-0.04194408 -0.25443116 -0.09217592 -0.28379762 -0.21002951 -1.4645365 -2.5600052 -0.36267695
-0.54713106 -0.9301473 -0.6539376 -1.196622 1.3175776 1.3328991 -0.8224102 -0.05733731
-0.4825277 1.6579636 1.1942648 0.04304941 -0.92514634 -0.5050364 0.06748476 0.987384
-0.82194066 0.05414808 1.461903 -0.4554691 1.0463831 -0.6166356 0.050410863 -0.4811821
-0.69859296 -0.38447583 -0.5775813 -0.4984498 -1.3993907 -2.9660504 -0.8375239 -0.15818699
-0.718229 -1.1198747 -0.23641475 0.7545173 -0.4785182 3.8448174 1.6717045 -0.14895928
0.9748906 1.6309417 1.4137996 -0.022303553 -0.42739615 -0.69551915 -0.34563303 0.03509554
-0.19560516 -0.3199701 -0.4072262 1.122293 1.8381505 2.3328063 0.67197156 -0.7641415
-0.44130185 1.1951473 1.1038128 -0.5400197 0.020508975 -0.04913038 -0.5706088 -0.32883224
-0.31595883 -0.65395576 0.7202648 -0.07097653 -0.65955186 -1.2569416 1.5376754 -0.5508175
-0.4267145 -0.1932261 0.92391115 -0.050667793 1.1138086 -0.03100002 -1.568028 0.13986304
-0.7773023 -0.17490686 -0.30026668 -1.3241631 1.6347657 0.6415086 1.4245584 1.1573973
-0.45262235 -0.69064534 0.80717885 -2.2779121 0.1180901 -0.061585315 -0.7980024 2.2233512
0.9771864 -1.7374545 -0.4950186 0.34603703 1.2280381 1.8908623 -1.1027051 0.8522285
-0.014274568 1.8837545 0.66710424 -0.7569551 -0.18047932 1.2848854 0.811629 -1.2205504
-0.18354554 -0.93574846 1.7403405 0.9223369 -0.085294716 0.77944744 -0.019214988 1.6907445
0.08612855 -0.3550254 -0.2042486 -0.28992662 0.24463314 -1.508056 -3.1964786 -0.29863268
00000000: 8464 2bbf 8f44 8cbf a745 27bf e73d 43bf
00000010: 18aa a73f 7f67 ba3f 5b5c a5bf 7638 21bd
00000020: 871b 02bf 19b2 0240 0069 a43f 39d0 81be
00000030: 9ee0 0fbf bc1e 02be 9540 803d cf2b 5f3f
00000040: 2ad6 35bf fa0d 6ebc 4164 8f3f 01af 05bf
00000050: 8248 7e3f 802d d6be 9493 ad3d 0820 03bf
00000060: ec2c 33bf d89f abbe 0575 1dbf 2ab5 10bf
00000070: 9b24 61bf aa0f 37c0 19c1 d4be b2c4 b1be
00000080: 4e0f d1be 5dac a7bf a646 bcbd 2e8c 553f
00000090: 2b75 c8be 036a 6640 e064 c43f 1923 8cbe
000000a0: dc6f 723f f0d8 c53f 1b98 b93f 74f2 a6bd
000000b0: 4aee c2be 8634 8bbf 39b0 58be 3350 2fbe
000000c0: 46f2 a8be 0048 abbe f1d1 60be 88e1 2d3f
000000d0: b6d1 dd3f 0562 2440 8e41 513f 70c0 96be
000000e0: 56bd f4be b6d1 6a3f 1f82 663f 40b6 d6be
000000f0: c6e9 273d 2bca b13d a899 7abe 1dee 89be
00000100: 9b54 aebe 8b4b 0fbf edd6 2b3f 8eb9 87be
00000110: 00c0 1bbf 6c7e b0bf 261b b63f ba57 2ebf
00000120: e2c5 bdbe 36eb 80be 3197 6d3f babd 34be
00000130: 5817 993f 1710 80be 2246 b2bf b6e3 9bbe
00000140: c281 5fbf 4e77 a7be 88f4 babe 075a bdbf
00000150: dc28 e63f b826 2c3f 70c5 b63f 7786 8f3f
00000160: 4c2b 9fbe 0630 edbe a22f 5b3f 1769 f0bf
00000170: f3fb 7d3e 779b a8be 0556 efbe 5648 1540
00000180: 9d2d 9c3f 6ac9 ffbf 14d1 b1be 4bc9 103f
00000190: 64e0 a23f bfa4 fb3f 5f91 9abf 6828 713f
000001a0: 8cd1 ebbc aab0 fe3f c760 303f e39c ccbe
000001b0: 38a8 b6be 0936 893f 6741 433f c9b4 81bf
000001c0: fa92 a6be c26a eabe 7a09 cb3f 51ff 653f
000001d0: 3747 973e 7679 593f 9240 09bc bb8a db3f
000001e0: 8ecd 2bbd cd44 82be bbc6 bcbd ec4d 91be
000001f0: fa11 57be ef75 bbbf 20d7 23c0 cbb0 b9be
00000200: c810 0cbf 221e 6ebf 7468 27bf e92a 99bf
00000210: 62a6 a83f 709c aa3f 7a89 52bf 87da 6abd
00000220: df0d f7be 2738 d43f abdd 983f 9454 303d
00000230: 64d6 6cbf 114a 01bf 7335 8a3d 33c5 7c3f
00000240: b46a 52bf 61ca 5d3d a31f bb3f 3f33 e9be
00000250: e2ef 853f d5db 1dbf 9f7b 4e3d 805d f6be
00000260: fdd6 32bf 04da c4be 5edc 13bf d034 ffbe
00000270: 3c1f b3bf c5d3 3dc0 f767 56bf c5fb 21be
00000280: dbdd 37bf 0e58 8fbf b516 72be 0c28 413f
00000290: 5600 f5be 7d11 7640 6afa d53f c888 18be
000002a0: 6e92 793f b3c2 d03f 63f7 b43f f1b5 b6bc
000002b0: abd3 dabe 8b0d 32bf d0f6 b0be 57c0 0f3d
000002c0: b84c 48be 1fd3 a3be f47f d0be 4ca7 8f3f
000002d0: 8448 eb3f b34c 1540 5406 2c3f c79e 43bf
000002e0: 51f2 e1be 96fa 983f bd49 8d3f bb3e 0abf
000002f0: 7002 a83c f03c 49bd 6b13 12bf b35c a8be
00000300: 5bc5 a1be a569 27bf 4663 383f 255c 91bd
00000310: 64d8 28bf 76e3 a0bf 8cd2 c43f 6002 0dbf
00000320: 537a dabe 10dd 45be 7185 6c3f 0889 4fbd
00000330: 4891 8e3f c1f3 fdbc 24b5 c8bf 4238 0f3e
00000340: 49fd 46bf c91a 33be 8ebc 99be 2d7e a9bf
00000350: 0140 d13f e839 243f ee57 b63f 9825 943f
00000360: 1ebe e7be 22ce 30bf 46a3 4e3f 50c9 11c0
00000370: 39d9 f13d e240 7cbd e349 4cbf 634b 0e40
00000380: e328 7a3f e964 debf 1473 fdbe c42b b13e
00000390: 5a30 9d3f c707 f23f 7125 8dbf a62b 5a3f
000003a0: e1df 69bc de1e f13f 58c7 2a3f cfc7 41bf
000003b0: 92cf 38be 2077 a43f ebc6 4f3f ff3a 9cbf
000003c0: 5df3 3bbe 368d 6fbf 7ac3 de3f 451e 6c3f
000003d0: ffae aebd de89 473f c068 9dbc 516a d83f
000003e0: 2a64 b03d e4c5 b5be 8c26 51be 4371 94be
000003f0: 1c81 7a3e fb07 c1bf 1b93 4cc0 62e6 98be

network.4.bias f4 [4]
0.08536391 0.12419562 0.002304476 0.0023952206
00000000: 46d3 ae3d 465a fe3d b106 173b 22f9 1c3b

network.0.weight f4 [128, 8]
-0.41437134 -0.18721244 0.6800417 0.19589815 -0.25685534 0.24467622 0.45941854 0.5654309
-0.3161301 -0.1395026 -0.4835736 -0.25271934 0.96165377 -0.14979938 0.34012842 0.25445798
-0.5805647 0.54439783 0.62773025 0.43775 -0.78363836 0.22213955 0.064150974 0.7361943
-0.76414835 -0.15941992 -0.2513223 -1.3386521 0.41567528 -0.009494691 -0.3421819 -0.17869712
0.6177577 0.050499223 -0.27151895 -0.28475988 0.53512424 -0.22490211 0.44519365 0.7409243
1.2839502 0.8126 1.6799167 -0.8132769 -0.011933298 -0.2459469 -0.22164555 -0.6129646
0.086231925 -0.08474417 -0.06064669 0.06827967 0.22029261 -0.38726276 -0.008734239 0.22834972
-1.4933233 -0.16259243 0.9676497 0.3439213 -0.8945583 0.49658462 -0.31736588 -0.41847017
-0.49186754 0.07595219 0.046738517 -0.12834214 -0.55335945 -0.15903631 0.8057994 -0.23958664
-0.61953944 0.6444068 0.35645172 -1.32245 0.38702983 -0.096573904 0.21670376 0.28929907
-0.49017134 0.13730845 -0.17284715 -0.8863599 0.6911093 -0.11030144 -0.08076306 0.6777194
-0.25763866 -0.03364782 2.0884683 -0.24351045 -0.45171782 0.034173205 0.24331243 0.094694495
0.17725448 0.23366623 -0.008040943 -0.9425707 0.37991855 -0.6052421 -0.20430239 0.28177473
0.13347319 0.44057634 0.50646573 0.043322418 0.107906066 0.3716928 -0.71101683 -0.32995164
0.82637495 -0.010453373 -0.3696979 -0.85097325 -0.505728 -0.41370124 -1.1821344 -0.14191751
1.4973948 0.37990043 -0.4315531 -0.39841464 -0.16941114 0.06587974 0.04250868 0.08858012
-0.22322978 -0.12771423 0.6190718 -0.21888788 0.35329342 -0.23216961 0.46043152 -0.060891837
-0.3748699 -0.09846482 0.015905863 0.011806904 -0.2956331 0.320996 0.66988254 0.6303005
-0.23792654 0.22492337 -0.14439258 -0.13710037 -1.2902479 0.27171296 0.02972737 -0.16994338
-1.3023814 0.33436567 -0.07821262 0.9670762 -0.009051314 -0.07850848 -0.060583495 0.23318073
0.30434972 -0.2639792 0.41990533 -0.90187407 -0.6458238 0.24573964 -0.053969834 0.36939272
0.114634596 0.1655325 -0.8625027 -0.20106138 0.73472947 -0.3609863 0.707913 0.25872838
-0.47697523 -0.21616039 0.25806224 0.14680381 -0.32700488 0.020730287 0.10549402 0.63107073
0.1374643 0.23094562 0.24355187 -0.7146431 0.18626143 0.006116607 -0.20866752 0.51354086
-0.12395387 -0.34361744 2.1054292 1.9989067 -0.04809293 0.027199619 0.74645615 -0.04513469
-0.10251727 0.48737508 1.1881044 -0.68625605 -0.29086456 0.19980794 0.12315276 0.36480904
-0.45134917 -0.085692115 1.6294769 -1.0651326 -0.45912373 -0.08994763 0.48898646 -0.05056744
0.3878712 0.2293721 -0.5944789 -0.17669414 0.35300508 -0.6271414 -0.9714113 -1.281583
-0.6961063 0.34582567 0.44553518 0.95468646 -0.29153934 0.9204567 -0.8136754 -0.9123955
-0.18293525 -0.6397057 0.02271809 -0.3770007 0.013450256 1.0051451 0.39414862 -0.14741443
-1.002665 -0.13590145 0.41737863 -0.046976805 -0.3121786 0.16085418 0.5170681 -1.156224
-0.075783424 0.09073103 -0.2894058 -0.6226137 -0.23135096 -0.42273203 0.37157494 -0.6057898
00000000: 7b28 d4be 9eb4 3fbe 3617 2e3f 8699 483e
00000010: 8b82 83be 678c 7a3e e838 eb3e 14c0 103f
00000020: cedb a1be c5d9 0ebe f596 f7be 6e64 81be
00000030: f12e 763f 0265 19be 5025 ae3e 5148 823e
00000040: e39f 14bf a85d 0b3f eeb2 203f c520 e03e
00000050: 869c 48bf 8d78 633e 9661 833d 3b77 3c3f
00000060: 3a9f 43bf fa3e 23be 51ad 80be f458 abbf
00000070: 64d3 d43e 9f8f 1bbc 7732 afbe 61fc 36be
00000080: 5e25 1e3f 46d8 4e3d 8804 8bbe 0ccc 91be
00000090: e7fd 083f bd4c 66be 6cf0 e33e 37ad 3d3f
000000a0: 7b58 a43f 8e06 503f 8307 d73f ea32 50bf
000000b0: e183 43bc 81d9 7bbe 0df7 62be 3feb 1cbf
000000c0: 5d9a b03d 5a8e adbd aa68 78bd 36d6 8b3d
000000d0: 6394 613e 4e47 c6be 0e1a 0fbc 82d4 693e
000000e0: 3825 bfbf a17e 26be e4b7 773f 7416 b03e
000000f0: c601 65bf 5740 fe3e c87d a2be b941 d6be
00000100: 10d6 fbbe d28c 9b3d e370 3f3d 1f6c 03be
00000110: f7a8 0dbf 6ada 22be df48 4e3f 3356 75be
00000120: 239a 1ebf d8f7 243f d780 b63e 0b46 a9bf
00000130: c628 c63e 8ac8 c5bd 97e7 5d3e 021f 943e
00000140: bdf7 fabe 969a 0c3e d8fe 30be 7be8 62bf
00000150: 8aec 303f b9e5 e1bd 1a67 a5bd 057f 2d3f
00000160: 37e9 83be 4cd2 09bd 77a9 0540 ce5a 79be
00000170: 8f47 e7be 34f9 0b3d e526 793e 30ef c13d
00000180: 3382 353e 3346 6f3e 29be 03bc 504c 71bf
00000190: af84 c23e 25f1 1abf a534 51be c744 903e
000001a0: 32ad 083e 3993 e13e bda7 013f d972 313d
000001b0: dbfd dc3d 854e be3e 3305 36bf 6cef a8be
000001c0: 4f8d 533f a044 2bbc 0b49 bdbe 62d9 59bf
000001d0: 6477 01bf a6d0 d3be 2e50 97bf d352 11be
000001e0: a2aa bf3f 4f82 c23e 87f4 dcbe 01fd cbbe
000001f0: 1d7a 2dbe f5eb 863d 951d 2e3d 7e69 b53d
00000200: 5996 64be 85c7 02be 7d7b 1e3f 2524 60be
00000210: e0e2 b43e dfbd 6dbe aebd eb3e b869 79bd
00000220: f3ee bfbe eca7 c9bd 034d 823c bf71 413c
00000230: 395d 97be 9659 a43e 6c7d 2b3f 605b 213f
00000240: 04a3 73be 5052 663e a6db 13be 0a64 0cbe
00000250: d826 a5bf f61d 8b3e d086 f33c a305 2ebe
00000260: 6fb4 a6bf fa31 ab3e f02d a0bd 4e92 773f
00000270: f64b 14bc 0ec9 a0bd 6626 78bd eec6 6e3e
00000280: bad3 9b3e 4828 87be d5fd d63e 38e1 66bf
00000290: b554 25bf 2ca3 7b3e 790f 5dbd 0b21 bd3e
000002a0: 8bc5 ea3d 5a81 293e facc 5cbf 09e3 4dbe
000002b0: 3b17 3c3f 32d3 b8be c939 353f 0c78 843e
000002c0: 1936 f4be 2659 5dbe bc20 843e bd53 163e
000002d0: 2f6d a7be 90d2 a93c 400d d83d da8d 213f
000002e0: 71c3 0c3e 027d 6c3e a965 793e daf2 36bf
000002f0: 51bb 3e3e d26d c83b f0ac 55be 6a77 033f
00000300: 87db fdbd a0ee afbe 5abf 0640 2ddc ff3f
00000310: 18fd 44bd bcd1 de3c c017 3f3f 27df 38bd
00000320: 93f4 d1bd 3a89 f93e ce13 983f 7aae 2fbf
00000330: 33ec 94be 749a 4c3e 8437 fc3d 40c8 ba3e
00000340: 3d17 e7be 597f afbd b392 d03f 4456 88bf
00000350: 4412 ebbe 7736 b8bd 6f5c fa3e ce1f 4fbd
00000360: 0e97 c63e 85e0 6a3e c52f 18bf 4fef 34be
00000370: 15bd b43e 578c 20bf 69ae 78bf e90a a4bf
00000380: 0634 32bf 1010 b13e 301d e43e 5566 743f
00000390: a544 95be 0da3 6b3f 084d 50bf c092 69bf
000003a0: 6153 3bbe c1c3 23bf 4a1b ba3c 3c06 c1be
000003b0: 765e 5c3c 98a8 803f d9cd c93e cff3 16be
000003c0: 5457 80bf c029 0bbe a7b2 d53e c06a 40bd
000003d0: e0d5 9fbe f5b6 243e 935e 043f 26ff 93bf
000003e0: 5734 9bbd 31d1 b93d ff2c 94be 9d63 1fbf
000003f0: 44e7 6cbe 5570 d8be 123f be3e 0a15 1bbf

network.0.bias f4 [128]
-0.13537343 0.3872209 -0.28418022 -0.3230352 -0.18771416 -0.099980384 0.4316388 -0.3047001
-0.0342531 -0.33310232 0.003533988 0.04998482 -0.0075508337 -0.9683029 0.30417782 -0.09647641
0.48832402 0.14267299 0.47883436 -0.4943697 0.7404524 0.14284258 0.32445413 0.06627416
0.0393088 0.41564667 0.15527698 0.18951494 -0.772521 -0.020382976 -0.0049888 0.32316554
0.21949726 -0.67805773 0.34970146 0.33853275 -0.7248789 0.003749919 0.43623587 0.47704786
0.36478764 -0.24857575 0.044318616 0.4183555 0.5609777 -0.09903368 0.511095 0.30064046
-0.5390167 0.04544041 0.64059204 -0.27003834 0.48455903 -0.73051864 -0.19510472 0.19871958
0.07807777 0.015865069 -0.90332735 0.79243666 0.59058213 0.8174501 -0.525056 0.08322755
-0.23287514 0.07991686 0.023039818 -0.089125685 -0.09298873 0.62037045 0.11776113 -0.10099338
0.567831 0.89954436 0.38362935 -0.54149103 -0.4837488 0.28762266 -0.16992444 -0.6949737
0.43877217 -0.1568362 -0.5630512 -0.99390996 0.47829023 0.6981046 -0.55967283 0.36445975
0.465444 0.26405805 0.62130016 0.5335924 -0.19352747 0.17937225 0.13794476 0.30670136
0.12866466 -0.3271767 0.24129018 0.31224126 0.095882416 -0.2411959 0.8080545 0.39662683
0.45040458 0.06894898 0.12293941 -0.2451371 0.489624 -0.42418572 -0.06410884 -0.80539906
-0.19070964 -0.12920877 -0.053811908 -0.00878038 0.1416616 0.046489168 0.13390893 0.16544122
-0.5324467 -0.045876972 -0.55634135 0.4048402 0.3339217 -0.4406494 0.6502362 -0.22877009
00000000: 559f 0abe d141 c63e 1280 91be df64 a5be
00000010: 2438 40be 84c2 ccbd c3ff dc3e a701 9cbe
00000020: fb4c 0cbd 638c aabe 7b9a 673b e2bc 4c3d
00000030: fc6c f7bb b3e2 77bf 32bd 9b3e 6d95 c5bd
00000040: 9b05 fa3e de18 123e c729 f53e 061e fdbe
00000050: 4a8e 3d3f 5345 123e da1e a63e bfba 873d
00000060: 4402 213d a4cf d43e ee00 1f3e 3410 423e
00000070: f0c3 45bf 33fa a6bc 1679 a3bb f475 a53e
00000080: e4c3 603e 3195 2dbf 120c b33e 2a54 ad3e
00000090: aa91 39bf 33c1 753b 4f5a df3e 9e3f f43e
000000a0: 72c5 ba3e a48a 7ebe 7087 353d b132 d63e
000000b0: 3c9c 0f3f 2cd2 cabd 1fd7 023f 8ced 993e
000000c0: 00fd 09bf b91f 3a3d d7fd 233f 7742 8abe
000000d0: 1f18 f83e 4503 3bbf 88c9 47be 257d 4b3e
000000e0: 3de7 9f3d 76f7 813c 7640 67bf 21dd 4a3f
000000f0: 6430 173f 6944 513f 126a 06bf 3573 aa3d
00000100: d276 6ebe 73ab a33d 00be bc3c 8787 b6bd
00000110: e070 bebd 99d0 1e3f bf2c f13d 9ed5 cebd
00000120: 5f5d 113f 8a48 663f 116b c43e 289f 0abf
00000130: ecad f7be 4743 933e ac00 2ebe cce9 31bf
00000140: bfa6 e03e ab99 20be 2024 10bf e270 7ebf
00000150: 75e2 f43e fcb6 323f b846 0fbf 789a ba3e
00000160: ad4e ee3e 9e32 873e 870d 1f3f 8399 083f
00000170: 112c 46be 5cad 373e 6441 0d3e f607 9d3e
00000180: abc0 033e b483 a7be c614 773e 16de 9f3e
00000190: 005e c43d 0ffc 76be a9dc 4e3f ac12 cb3e
000001a0: 6e9b e63e 1f35 8d3d a8c7 fb3d 3805 7bbe
000001b0: ffaf fa3e df2e d9be 7f4b 83bd a22e 4ebf
000001c0: 6349 43be 4e4f 04be e069 5cbd 95db 0fbc
000001d0: bd0f 113e 6d6b 3e3d 6c1f 093e 6c69 293e
000001e0: 6d4e 08bf 7ee9 3bbd 636c 0ebf 3747 cf3e
000001f0: c9f7 aa3e cc9c e1be e175 263f b542 6abe

network.2.weight f4 [128, 128]
0.6097998 0.0034680583 -0.20820282 1.7946446 0.30748713 -0.095149994 0.2995413 0.6432939
0.5383919 0.1272251 0.38458967 0.3659091 0.018647553 0.40243953 0.4389153 -0.45693997
-0.012161279 0.35291648 -0.16907926 -0.4431255 -0.029678175 0.4121601 0.31536788 0.3147737
0.26492524 -0.11751433 0.26678175 -0.0801563 1.02134 0.67475617 0.972469 0.04700012
-0.12996845 1.2206197 -0.121488005 0.28014117 0.94925916 -0.632103 -0.3801306 -0.19796655
-0.06314979 -0.19853823 -0.1224532 -0.3240709 -0.58416355 0.16296995 -0.3370223 -0.35650057
0.5144028 1.5266315 0.64686215 0.45171827 0.031789903 -0.025064949 0.15920715 -0.20240314
0.273904 -0.64041746 0.5775213 -0.71921355 0.21103661 -0.113100626 1.1036704 -0.06088181
-0.41347808 0.21173024 0.15234129 0.91510195 0.33385155 -0.29984653 0.21124062 -0.15576677
-0.2043214 0.28420696 -0.28340062 -0.06582113 1.1262589 0.17019185 0.017103767 0.7366106
-0.33930534 -1.0595783 0.6508799 2.8859026 0.27308595 -0.08182773 0.051458437 -0.77387
-0.061744712 0.07275736 0.07774984 0.13107605 -1.1918236 0.21257605 -0.09186681 -0.38325757
0.25794587 0.44031975 -0.05650787 -0.09553149 -0.27560636 0.12115718 -0.15166222 -0.6542675
-0.28622738 0.13538954 0.13769549 0.32419962 0.19064383 0.31778455 0.3853685 1.0651007
1.0980006 0.22690845 0.37566638 1.4630353 0.22443728 0.13289335 0.36263677 -0.10864269
0.42829895 -0.3586431 0.16042016 0.2939523 0.06477033 0.3598979 -0.14034367 0.76122755
-0.44623563 -0.0045726816 0.26706165 -0.9549646 -0.046737194 -0.064895056 0.23575489 0.07826834
-0.18690081 -0.6025972 -0.053420443 -1.1960353 0.4089588 -2.6137967 0.10062222 -0.2374347
0.15128236 -0.26673758 0.051890485 -1.5762154 0.164409 -0.39174202 0.18771201 0.19161353
-1.7604387 0.17895779 -0.08580911 -0.5928499 -0.46033168 -0.52146965 -0.32143182 0.26589596
-0.13869677 -0.42930812 0.1870679 -0.44223493 0.11156934 -0.6753624 -0.08646313 0.16957317
-0.09940927 -1.2665881 0.0427572 -0.13147034 0.33227468 -0.20872508 -0.11879439 -0.6302318
0.048205297 0.255501 0.6963514 -0.65774393 0.56608284 -0.43785095 -0.20674537 -0.2571329
0.28761068 -0.6100279 -0.26806962 0.38598502 0.26225138 0.46211827 -1.9826506 -0.15804295
0.041250773 -0.2514557 0.3136726 -0.3665446 0.39115247 0.22986917 -0.037147596 0.04127541
0.30926898 0.5290469 0.1624933 -0.10997255 -0.69865155 0.09760736 -0.5674441 -0.044791494
0.21178734 -0.4542703 -0.9477347 0.4331936 -0.14285417 0.5509478 -1.5671959 0.19146481
0.26666957 -0.098014876 0.10382743 -0.07460218 0.5269653 -0.33774254 0.10265247 0.045839645
0.06700773 -0.17507063 -0.43546647 -0.19779798 0.3477706 0.61971074 0.49398282 0.08442033
0.06872288 -0.6748837 0.083841644 0.050067283 -0.0176754 0.095552474 -1.2525592 0.040470906
-0.49830654 -0.027281143 -0.034157358 -2.9609253 -0.48454362 0.114541076 -0.3368676 0.14665435
-0.6885891 -0.10494889 0.09297865 0.04557141 -0.13742845 -2.0948777 0.07759893 -0.7915774
00000000: d71b 1c3f 5d48 633b 1f33 55be eab6 e53f
00000010: f46e 9d3e 00de c2bd 7a5d 993e e9ae 243f
00000020: 0dd4 093f 4c47 023e f0e8 c43e 7058 bb3e
00000030: c1c2 983c 8e0c ce3e 82b9 e03e 09f4 e9be
00000040: 1a40 47bc 78b1 b43e 1d23 2dbe 58e1 e2be
00000050: a51f f3bc a606 d33e e677 a13e 052a a13e
00000060: 48a4 873e 5aab f0bd 9e97 883e fc28 a4bd
00000070: 45bb 823f d2bc 2c3f baf3 783f 3383 403d
00000080: 7316 05be 443d 9c3f b4ce f8bd aa6e 8f3e
00000090: a602 733f 81d1 21bf 7aa0 c2be beb7 4abe
000000a0: ad54 81bd 9b4d 4bbe bec8 fabd 9fec a5be
000000b0: be8b 15bf 98e1 263e 308e acbe 3e87 b6be
000000c0: e7af 033f a968 c33f c298 253f 9e47 e73e
000000d0: 2136 023d 0255 cdbc 3307 233e c542 4fbe
000000e0: 253d 8c3e 66f2 23bf 70d8 133f 611e 38bf
000000f0: fb19 583e 4da1 e7bd 1245 8d3f 345f 79bd
00000100: 66b3 d3be d0cf 583e 5bff 1b3e 1f44 6a3f
00000110: 97ee aa3e 7c85 99be 764f 583e 5381 1fbe
00000120: a139 51be 9383 913e e319 91be 3bcd 86bd
00000130: 4029 903f c646 2e3e 331d 8c3c 8392 3c3f
00000140: 6eb9 adbe 43a0 87bf 11a0 263f a1b2 3840
00000150: ecd1 8b3e 4c95 a7bd 15c6 523d 581c 46bf
00000160: 06e8 7cbd d001 953d 4f3b 9f3d cd38 063e
00000170: ad8d 98bf 89ad 593e ab24 bcbd 563a c4be
00000180: 7b11 843e 9771 e13e cc74 67bd 04a6 c3bd
00000190: 471c 8dbe 4121 f83d 574d 1bbe 137e 27bf
000001a0: 658c 92be 8ea3 0a3e 0c00 0d3e 7efd a53e
000001b0: 2338 433e a8b4 a23e 054f c53e 3855 883f
000001c0: 498b 8c3f b05a 683e 5857 c03e be44 bb3f
000001d0: e3d2 653e 3215 083e 87ab b93e 0f80 debd
000001e0: 004a db3e 12a0 b7be 2f45 243e ea80 963e
000001f0: 4fa6 843d 8a44 b83e 40b6 0fbe cfdf 423f
00000200: ff78 e4be 6fd6 95bb 4ebc 883e 8f78 74bf
00000210: 806f 3fbd b3e7 84bd bb69 713e 274b a03d
00000220: ed62 3fbe cf43 1abf 65cf 5abd af17 99bf
00000230: 0c63 d13e 7248 27c0 0613 ce3d 1522 73be
00000240: c3e9 1a3e d491 88be 1e8b 543d 6dc1 c9bf
00000250: d55a 283e 6992 c8be 9437 403e 5636 443e
00000260: 0e56 e1bf b640 373e b0bc afbd 03c5 17bf
00000270: 98b0 ebbe 097f 05bf b692 a4be 8423 883e
00000280: 8706 0ebe 46ce dbbe ba8e 3f3e 9e6c e2be
00000290: 777e e43d 8de4 2cbf 9513 b1bd 97a4 2d3e
000002a0: 1697 cbbd 8f1f a2bf 2c22 2f3d 29a0 06be
000002b0: e81f aa3e 07bc 55be 794a f3bd df56 21bf
000002c0: eb72 453d 07d1 823e 1644 323f e861 28bf
000002d0: ceea 103f 002e e0be 0fb5 53be eca6 83be
000002e0: b541 933e ca2a 1cbf 6c40 89be d49f c53e
000002f0: d045 863e c49a ec3e 7fc7 fdbf 03d6 21be
00000300: 92f6 283d cdbe 80be b299 a03e bcab bbbe
00000310: 2345 c83e d362 6b3e 1428 18bd 6810 293d
00000320: 8158 9e3e 9e6f 073f a564 263e 4a39 e1bd
00000330: d4da 32bf 5ee6 c73d 0444 11bf 4977 37bd
00000340: c8de 583e 1e96 e8be be9e 72bf 8dcb dd3e
00000350: 5d48 12be ea0a 0d3f e099 c8bf 5a0f 443e
00000360: ea88 883e 06bc c8bd 7aa3 d43d 07c9 98bd
00000370: 33e7 063f 97ec acbe 753b d23d 5ac2 3b3d
00000380: 593b 893d b745 33be 76f5 debe 8e8b 4abe
00000390: fd0e b23e 5da5 1e3f 51eb fc3e 91e4 ac3d
000003a0: 95be 8c3d 2ec5 2cbf 2bb5 ab3d 5a13 4d3d
000003b0: 00cc 90bc 04b1 c33d dc53 a0bf d2c4 253d
000003c0: 0922 ffbe b47c dfbc 96e8 0bbd cd7f 3dc0
000003d0: 1a16 f8be 8394 ea3d e979 acbe 8f2c 163e
000003e0: 6047 30bf 72ef d6bd 976b be3d 16a9 3a3d
000003f0: 0bba 0cbe 7a12 06c0 30ec 9e3d d1a4 4abf

network.2.bias f4 [128]
-0.35675007 0.39786988 -0.350691 0.30578777 0.4749133 0.23502578 0.05912949 -0.06756389
-0.008522517 -0.026625462 -0.2059888 -0.069265455 -0.17930953 0.007836694 -0.045945473 0.17578043
-0.19729517 -0.06389078 -0.033169873 -0.012399981 0.30236185 -0.14395654 -0.061867256 -0.16847584
-0.1600103 -0.11140996 -0.107035466 0.021988468 -0.25141746 -0.34375438 0.11902589 -0.116448544
-0.039439883 0.094183624 0.003797931 -0.37908685 -0.11290468 0.09746631 0.10535866 -0.11479684
0.36215192 -0.11371986 0.33638772 -0.048608862 0.08048478 -0.12693575 -0.010846469 0.037778277
-0.04687654 0.002066298 -0.14678587 0.27616835 -0.0820494 -0.11614318 -0.10531703 0.38433293
-0.014853438 0.26346576 -0.07933588 -0.29384202 -0.09800739 0.024575628 0.06263596 -0.14301468
0.050430983 -0.41264114 0.018497452 -0.021199463 0.32626304 -0.074875034 0.044600215 -0.39526433
-0.071393475 0.17325018 0.32452908 0.19793703 0.07364412 -0.05693864 0.5186851 0.3024307
0.39091176 -0.12354976 0.000539057 -0.16920581 0.007663287 0.14123735 0.3401126 0.10220626
-0.137877 -0.15244572 0.21414652 -0.38903725 -0.05165999 -0.1358303 -0.07341938 -0.019811247
0.26427174 -0.27481702 0.017383441 4.7444446e-05 -0.12014597 0.07426272 -0.3767258 0.20007303
-0.017208822 0.0870989 -0.0052631954 -0.345199 -0.046374273 0.11722774 0.10502181 -0.10428383
-0.14239234 -0.2090363 -0.22149214 0.36898953 -0.086199194 0.18122117 -0.06529377 0.0052569644
0.011673343 -0.026769334 -0.021469638 0.06051596 -0.031876534 -0.21781333 -0.61808306 -0.1630061
00000000: f2a7 b6be 9ab5 cb3e c58d b3be 3790 9c3e
00000010: d627 f33e 99aa 703e c431 723d f05e 8abd
00000020: 07a2 0bbc a41d dabc baee 52be 0cdb 8dbd
00000030: eb9c 37be 7a65 003c 5231 3cbd c9ff 333e
00000040: bf07 4abe 2bd9 82bd 22dd 07bd 4a29 4bbc
00000050: 2ccf 9a3e 5869 13be 8568 7dbd ee84 2cbe
00000060: bdd9 23be e82a e4bd 6935 dbbd 2921 b43c
00000070: cab9 80be 9300 b0be d9c3 f33d 937c eebd
00000080: b78b 21bd 58e3 c03d b5e6 783b ac17 c2be
00000090: 923a e7bd 6b9c c73d 48c6 d73d 9b1a ebbd
000000a0: fa6b b93e f5e5 e8bd 033b ac3e 161a 47bd
000000b0: 34d5 a43d 72fb 01be 63b5 31bc 65bd 1a3d
000000c0: 9d01 40bd ba6a 073b 094f 16be f065 8d3e
000000d0: 8409 a8bd 7adc edbd 74b0 d7bd 49c7 c43e
000000e0: d65b 73bc fce4 863e da7a a2bd 7672 96be
000000f0: 19b8 c8bd d452 c93c 4847 803d 7172 12be
00000100: b890 4e3d b345 d3be f887 973c 7faa adbc
00000110: f30b a73e 1558 99bd b7ae 363d 1660 cabe
00000120: be36 92bd 7f68 313e ad28 a63e 01b0 4a3e
00000130: bad2 963d 7e38 69bd 8cc8 043f 32d8 9a3e
00000140: 9625 c83e a807 fdbd 814f 0d3a 4a44 2dbe
00000150: 501c fb3b 86a0 103e 3d23 ae3e 8451 d13d
00000160: a12f 0dbe bb1a 1cbe 3a49 5b3e e42f c7be
00000170: 6d99 53bd 1917 0bbe e65c 96bd 324b a2bc
00000180: a04e 873e d1b4 8cbe b867 8e3c 16ff 4638
00000190: 170f f6bd 0e17 983d 34e2 c0be f2df 4c3e
000001a0: 84f9 8cbc e860 b23d e276 acbb ecbd b0be
000001b0: f3f2 3dbd 1915 f03d ad15 d73d c392 d5bd
000001c0: 4ccf 11be 9d0d 56be d6ce 62be 32ec bc3e
000001d0: 3489 b0bd 0b92 393e bdb8 85bd 9d42 ac3b
000001e0: 8d41 3f3c 5d4b dbbc 18e1 afbc 95df 773d
000001f0: f890 02bd 750a 5fbe b13a 1ebf 12eb 26be

network.4.weight f4 [4, 128]
-0.6695025 -1.0958422 -0.65340656 -0.7626633 1.3098783 1.4562835 -1.291881 -0.039360486
-0.50823253 2.0421202 1.2844543 -0.25354174 -0.56202114 -0.12707037 0.06262318 0.8717622
-0.71029913 -0.014529699 1.120247 -0.5222016 0.9932939 -0.4183159 0.08475414 -0.5122075
-0.6999042 -0.3352039 -0.6150668 -0.56526434 -0.8794648 -2.860331 -0.41553572 -0.3472038
-0.4083199 -1.3099476 -0.091931626 0.8341702 -0.39151892 3.6002204 1.5343285 -0.27370527
0.94701934 1.5456829 1.4499544 -0.08151713 -0.38072425 -1.0875404 -0.21160974 -0.17120437
-0.3299734 -0.3345337 -0.21955086 0.6792226 1.7329624 2.5684826 0.81740654 -0.29443693
-0.47800702 0.91726243 0.900423 -0.4193592 0.040994428 0.086811386 -0.24472678 -0.2693948
-0.34048924 -0.55974644 0.67124826 -0.26508754 -0.60839844 -1.3788581 1.4227035 -0.6810261
-0.37065035 -0.25179452 0.92808825 -0.176505 1.1960249 -0.25012276 -1.3927653 -0.30447167
-0.8730737 -0.3270821 -0.36514688 -1.4793099 1.7981219 0.6724658 1.4279003 1.121291
-0.3108772 -0.463257 0.85619557 -1.8782071 0.24803142 -0.3293111 -0.46745315 2.33254
1.220142 -1.9983342 -0.34729826 0.5655715 1.2724729 1.9659652 -1.2075614 0.9420228
-0.028786443 1.9897664 0.6889767 -0.39963445 -0.35675216 1.0719615 0.7627167 -1.0133296
-0.3253401 -0.45784575 1.5862267 0.89842707 0.2954652 0.8495096 -0.008377211 1.7151712
-0.04194408 -0.25443116 -0.09217592 -0.28379762 -0.21002951 -1.4645365 -2.5600052 -0.36267695
-0.54713106 -0.9301473 -0.6539376 -1.196622 1.3175776 1.3328991 -0.8224102 -0.05733731
-0.4825277 1.6579636 1.1942648 0.04304941 -0.92514634 -0.5050364 0.06748476 0.987384
-0.82194066 0.05414808 1.461903 -0.4554691 1.0463831 -0.6166356 0.050410863 -0.4811821
-0.69859296 -0.38447583 -0.5775813 -0.4984498 -1.3993907 -2.9660504 -0.8375239 -0.15818699
-0.718229 -1.1198747 -0.23641475 0.7545173 -0.4785182 3.8448174 1.6717045 -0.14895928
0.9748906 1.6309417 1.4137996 -0.022303553 -0.42739615 -0.69551915 -0.34563303 0.03509554
-0.19560516 -0.3199701 -0.4072262 1.122293 1.8381505 2.3328063 0.67197156 -0.7641415
-0.44130185 1.1951473 1.1038128 -0.5400197 0.020508975 -0.04913038 -0.5706088 -0.32883224
-0.31595883 -0.65395576 0.7202648 -0.07097653 -0.65955186 -1.2569416 1.5376754 -0.5508175
-0.4267145 -0.1932261 0.92391115 -0.050667793 1.1138086 -0.03100002 -1.568028 0.13986304
-0.7773023 -0.17490686 -0.30026668 -1.3241631 1.6347657 0.6415086 1.4245584 1.1573973
-0.45262235 -0.69064534 0.80717885 -2.2779121 0.1180901 -0.061585315 -0.7980024 2.2233512
0.9771864 -1.7374545 -0.4950186 0.34603703 1.2280381 1.8908623 -1.1027051 0.8522285
-0.014274568 1.8837545 0.66710424 -0.7569551 -0.18047932 1.2848854 0.811629 -1.2205504
-0.18354554 -0.93574846 1.7403405 0.9223369 -0.085294716 0.77944744 -0.019214988 1.6907445
0.08612855 -0.3550254 -0.2042486 -0.28992662 0.24463314 -1.508056 -3.1964786 -0.29863268
00000000: 8464 2bbf 8f44 8cbf a745 27bf e73d 43bf
00000010: 18aa a73f 7f67 ba3f 5b5c a5bf 7638 21bd
00000020: 871b 02bf 19b2 0240 0069 a43f 39d0 81be
00000030: 9ee0 0fbf bc1e 02be 9540 803d cf2b 5f3f
00000040: 2ad6 35bf fa0d 6ebc 4164 8f3f 01af 05bf
00000050: 8248 7e3f 802d d6be 9493 ad3d 0820 03bf
00000060: ec2c 33bf d89f abbe 0575 1dbf 2ab5 10bf
00000070: 9b24 61bf aa0f 37c0 19c1 d4be b2c4 b1be
00000080: 4e0f d1be 5dac a7bf a646 bcbd 2e8c 553f
00000090: 2b75 c8be 036a 6640 e064 c43f 1923 8cbe
000000a0: dc6f 723f f0d8 c53f 1b98 b93f 74f2 a6bd
000000b0: 4aee c2be 8634 8bbf 39b0 58be 3350 2fbe
000000c0: 46f2 a8be 0048 abbe f1d1 60be 88e1 2d3f
000000d0: b6d1 dd3f 0562 2440 8e41 513f 70c0 96be
000000e0: 56bd f4be b6d1 6a3f 1f82 663f 40b6 d6be
000000f0: c6e9 273d 2bca b13d a899 7abe 1dee 89be
00000100: 9b54 aebe 8b4b 0fbf edd6 2b3f 8eb9 87be
00000110: 00c0 1bbf 6c7e b0bf 261b b63f ba57 2ebf
00000120: e2c5 bdbe 36eb 80be 3197 6d3f babd 34be
00000130: 5817 993f 1710 80be 2246 b2bf b6e3 9bbe
00000140: c281 5fbf 4e77 a7be 88f4 babe 075a bdbf
00000150: dc28 e63f b826 2c3f 70c5 b63f 7786 8f3f
00000160: 4c2b 9fbe 0630 edbe a22f 5b3f 1769 f0bf
00000170: f3fb 7d3e 779b a8be 0556 efbe 5648 1540
00000180: 9d2d 9c3f 6ac9 ffbf 14d1 b1be 4bc9 103f
00000190: 64e0 a23f bfa4 fb3f 5f91 9abf 6828 713f
000001a0: 8cd1 ebbc aab0 fe3f c760 303f e39c ccbe
000001b0: 38a8 b6be 0936 893f 6741 433f c9b4 81bf
000001c0: fa92 a6be c26a eabe 7a09 cb3f 51ff 653f
000001d0: 3747 973e 7679 593f 9240 09bc bb8a db3f
000001e0: 8ecd 2bbd cd44 82be bbc6 bcbd ec4d 91be
000001f0: fa11 57be ef75 bbbf 20d7 23c0 cbb0 b9be
00000200: c810 0cbf 221e 6ebf 7468 27bf e92a 99bf
00000210: 62a6 a83f 709c aa3f 7a89 52bf 87da 6abd
00000220: df0d f7be 2738 d43f abdd 983f 9454 303d
00000230: 64d6 6cbf 114a 01bf 7335 8a3d 33c5 7c3f
00000240: b46a 52bf 61ca 5d3d a31f bb3f 3f33 e9be
00000250: e2ef 853f d5db 1dbf 9f7b 4e3d 805d f6be
00000260: fdd6 32bf 04da c4be 5edc 13bf d034 ffbe
00000270: 3c1f b3bf c5d3 3dc0 f767 56bf c5fb 21be
00000280: dbdd 37bf 0e58 8fbf b516 72be 0c28 413f
00000290: 5600 f5be 7d11 7640 6afa d53f c888 18be
000002a0: 6e92 793f b3c2 d03f 63f7 b43f f1b5 b6bc
000002b0: abd3 dabe 8b0d 32bf d0f6 b0be 57c0 0f3d
000002c0: b84c 48be 1fd3 a3be f47f d0be 4ca7 8f3f
000002d0: 8448 eb3f b34c 1540 5406 2c3f c79e 43bf
000002e0: 51f2 e1be 96fa 983f bd49 8d3f bb3e 0abf
000002f0: 7002 a83c f03c 49bd 6b13 12bf b35c a8be
00000300: 5bc5 a1be a569 27bf 4663 383f 255c 91bd
00000310: 64d8 28bf 76e3 a0bf 8cd2 c43f 6002 0dbf
00000320: 537a dabe 10dd 45be 7185 6c3f 0889 4fbd
00000330: 4891 8e3f c1f3 fdbc 24b5 c8bf 4238 0f3e
00000340: 49fd 46bf c91a 33be 8ebc 99be 2d7e a9bf
00000350: 0140 d13f e839 243f ee57 b63f 9825 943f
00000360: 1ebe e7be 22ce 30bf 46a3 4e3f 50c9 11c0
00000370: 39d9 f13d e240 7cbd e349 4cbf 634b 0e40
00000380: e328 7a3f e964 debf 1473 fdbe c42b b13e
00000390: 5a30 9d3f c707 f23f 7125 8dbf a62b 5a3f
000003a0: e1df 69bc de1e f13f 58c7 2a3f cfc7 41bf
000003b0: 92cf 38be 2077 a43f ebc6 4f3f ff3a 9cbf
000003c0: 5df3 3bbe 368d 6fbf 7ac3 de3f 451e 6c3f
000003d0: ffae aebd de89 473f c068 9dbc 516a d83f
000003e0: 2a64 b03d e4c5 b5be 8c26 51be 4371 94be
000003f0: 1c81 7a3e fb07 c1bf 1b93 4cc0 62e6 98be

network.4.bias f4 [4]
0.08536391 0.12419562 0.002304476 0.0023952206
00000000: 46d3 ae3d 465a fe3d b106 173b 22f9 1c3b
